date

SLURM_JOBID:		 61212
SLURM_JOB_NODELIST:	 ise-6000-01 


|| Running model number 1/1  || 
optimizer: Adam, dropout: 0, batch_norm: True, batch_size: 128, loss_fn: binary_cross_entropy, use_augmentation: 10_epoch_30
----------------------------------------------------------------
        Layer (type)               Output Shape         Param #
================================================================
            Conv2d-1           [-1, 64, 96, 96]           6,464
       BatchNorm2d-2           [-1, 64, 96, 96]             128
         MaxPool2d-3           [-1, 64, 48, 48]               0
           Dropout-4           [-1, 64, 48, 48]               0
            Conv2d-5          [-1, 128, 42, 42]         401,536
       BatchNorm2d-6          [-1, 128, 42, 42]             256
         MaxPool2d-7          [-1, 128, 21, 21]               0
           Dropout-8          [-1, 128, 21, 21]               0
            Conv2d-9          [-1, 128, 18, 18]         262,272
      BatchNorm2d-10          [-1, 128, 18, 18]             256
        MaxPool2d-11            [-1, 128, 9, 9]               0
          Dropout-12            [-1, 128, 9, 9]               0
           Conv2d-13            [-1, 256, 6, 6]         524,544
      BatchNorm2d-14            [-1, 256, 6, 6]             512
          Dropout-15            [-1, 256, 6, 6]               0
          Flatten-16                 [-1, 9216]               0
           Linear-17                 [-1, 4096]      37,752,832
      BatchNorm1d-18                 [-1, 4096]           8,192
          Dropout-19                 [-1, 4096]               0
================================================================
Total params: 38,956,992
Trainable params: 38,956,992
Non-trainable params: 0
----------------------------------------------------------------
Input size (MB): 0.04
Forward/backward pass size (MB): 16.72
Params size (MB): 148.61
Estimated Total Size (MB): 165.37
----------------------------------------------------------------
None
Training on device: cuda
…
